name: "xnor_nn_task"
layer {
  name: "data"
  type: "DummyData"
  top: "data"
  include {
    phase: TRAIN
  }
  dummy_data_param {
    shape: { dim: 1 dim: 1 dim: 60 dim: 61 }
    data_filler {
      type: "constant"
      value: 0.01
    }
  }
}
layer {
  name: "data"
  type: "DummyData"
  top: "label"
  include {
    phase: TRAIN
  }
  dummy_data_param {
    shape: { dim: 1  }
    data_filler {
      type: "constant"
    }
  }
}

layer {
  name: "conv1"
  type: "Convolution"
  bottom: "data"
  top: "conv1"
  param {
    lr_mult: 1
    decay_mult: 1
  }
  param {
    lr_mult: 2
    decay_mult: 0
  }
  convolution_param {
    num_output: 24
    kernel_size: 3
    stride: 1
    engine: XNOR_NN
    weight_filler {
      type: "gaussian"
      std: 0.01
    }
    bias_filler {
      type: "constant"
      value: 0
    }
  }
}
layer {
  name: "conv2"
  type: "Convolution"
  bottom: "conv1"
  top: "conv2"
  param {
    lr_mult: 1
    decay_mult: 1
  }
  param {
    lr_mult: 2
    decay_mult: 0
  }
  convolution_param {
    num_output: 24
    kernel_size: 3
    stride: 1
    engine: XNOR_NN
    weight_filler {
      type: "gaussian"
      std: 0.01
    }
    bias_filler {
      type: "constant"
      value: 0
    }
  }
}
layer {
  name: "fc8"
  type: "InnerProduct"
  bottom: "conv2"
  top: "fc8"
  param {
    lr_mult: 1
    decay_mult: 1
  }
  param {
    lr_mult: 2
    decay_mult: 0
  }
  inner_product_param {
    num_output: 1
    weight_filler {
      type: "gaussian"
      std: 0.01
    }
    bias_filler {
      type: "constant"
      value: 0
    }
  }
}
layer {
  name: "Top1"
  type: "Accuracy"
  bottom: "fc8"
  bottom: "label"
  top: "Top1"
  include {
    phase: TEST
  }
}
layer {
  name: "Top5"
  type: "Accuracy"
  bottom: "fc8"
  bottom: "label"
  top: "Top5"
  accuracy_param {
    top_k: 5
  }
  include {
    phase: TEST
  }
}
layer {
  name: "loss"
  type: "SoftmaxWithLoss"
  bottom: "fc8"
  bottom: "label"
  top: "loss"
}
