name: "LeNet"
layer {
  name: "mnist"
  type: "Data"
  top: "data"
  top: "label"
  include {
    phase: TRAIN
  }
  transform_param {
    scale: 0.00390625
    mean_value: 127
  }
  data_param {
    source: "data/mnist/mnist_train_lmdb"
    batch_size: 64
    backend: LMDB
  }
}
layer {
  name: "mnist"
  type: "Data"
  top: "data"
  top: "label"
  include {
    phase: TEST
  }
  transform_param {
    scale: 0.00390625
    mean_value: 127
  }
  data_param {
    source: "data/mnist/mnist_test_lmdb"
    batch_size: 100
    backend: LMDB
  }
}
layer {
  name: "conv1"
  type: "Convolution"
  bottom: "data"
  top: "conv1"
  param {
    lr_mult: 0.1
  }
  convolution_param {
    num_output: 24
    kernel_size: 5
    stride: 1
    bias_term: false
    engine: XNOR_NN
    weight_filler {
      type: "xavier"
    }
  }
}
layer {
  name: "pool1"
  type: "Pooling"
  bottom: "conv1"
  top: "pool1"
  pooling_param {
    pool: MAX
    kernel_size: 2
    stride: 2
  }
}
layer {
  name: "bn1"
  type: "BatchNorm"
  bottom: "pool1"
  top: "bn1"
  param {
    lr_mult: 1
  }
  param {
    lr_mult: 1
  }
  param {
    lr_mult: 1
  }
}
layer {
  name: "conv2"
  type: "Convolution"
  bottom: "bn1"
  top: "conv2"
  param {
    lr_mult: 0.1
  }
  convolution_param {
    num_output: 48
    kernel_size: 5
    stride: 1
    bias_term: false
    engine: XNOR_NN
    weight_filler {
      type: "xavier"
    }
  }
}
layer {
  name: "pool2"
  type: "Pooling"
  bottom: "conv2"
  top: "pool2"
  pooling_param {
    pool: MAX
    kernel_size: 2
    stride: 2
  }
}
layer {
  name: "ip1"
  type: "InnerProduct"
  bottom: "pool2"
  top: "ip1"
  param {
    lr_mult: 1
  }
  param {
    lr_mult: 2
  }
  inner_product_param {
    num_output: 500
    weight_filler {
      type: "xavier"
    }
    bias_filler {
      type: "constant"
    }
  }
}
layer {
  name: "relu1"
  type: "ReLU"
  bottom: "ip1"
  top: "ip1"
}
layer {
  name: "ip2"
  type: "InnerProduct"
  bottom: "ip1"
  top: "ip2"
  param {
    lr_mult: 1
  }
  param {
    lr_mult: 2
  }
  inner_product_param {
    num_output: 10
    weight_filler {
      type: "xavier"
    }
    bias_filler {
      type: "constant"
    }
  }
}
layer {
  name: "Top1"
  type: "Accuracy"
  bottom: "ip2"
  bottom: "label"
  top: "Top1"
  include {
    phase: TEST
  }
}
layer {
  name: "Top5"
  type: "Accuracy"
  bottom: "ip2"
  bottom: "label"
  top: "Top5"
  accuracy_param {
    top_k: 5
  }
  include {
    phase: TEST
  }
}
layer {
  name: "loss"
  type: "SoftmaxWithLoss"
  bottom: "ip2"
  bottom: "label"
  top: "loss"
}
